data.pth (torch, 4479 bytes, 6 tensors)

l1.weight f4 [8, 44]
00000000: 135b 9e3e 17eb e73d 3c51 ab3d 4cd8 9dbe
00000010: 7366 c53e c986 81bd 76b4 b63e 2079 d1bb
00000020: acd1 8abe 678d 913e 87ec 1e3e 3125 c13e
00000030: 5b20 1a3e 85cd 723e 48b7 cf3c 6032 d43e
00000040: d7e6 8abe 78c8 35be 523c 8abe c01b 8abe
00000050: e417 8abe 31a1 bb3e 6a59 fc3e f057 193f
00000060: 1eee 9cbe 118b f03d 1828 a1bd 519f 003f
00000070: 5352 a83d c348 993d 8ac8 b13d 0d4a f83d
00000080: 27d4 61bd c666 d7be f75a 3cbe 3388 a83d
00000090: 12f5 8f3d 2d42 193f 8527 1abe 5b54 223e
000000a0: c308 943e 6e1a a13e d57e 613e 373e d63d
000000b0: 8a25 7c3d 0ff0 4f3e 89bc bdbd d6f0 f83e
000000c0: 9a25 75be 2e33 e73e a50e 9f3e 9af1 d13e
000000d0: 53b3 1c3f f4b5 f73d 0261 6cbe d889 7dbe
000000e0: 498a c33e 8e45 6bbd 7eb9 ea3e 4a81 a93e
000000f0: 36a7 003f 0a72 003f d0b8 dbbe 4ea6 dcbe
00000100: 8ae8 dcbe 06eb 7ebe 27d5 fcbd c692 44be
00000110: 3d20 e93e 7ec7 793e f075 bd3e 96b2 053e
00000120: 8cc5 b73e 0d97 febd 50b5 60be 3203 3bbd
00000130: d6c1 af3e b4c1 c93e 06f4 d63e 3470 aa3e
00000140: ec64 b73e 7904 10bf 1c11 ac3e 388f 743e
00000150: 3db6 dd3e 2b0f 913c ee3d 133e 0447 733e
00000160: b9f2 6fbd 6897 993e 8f23 dfbd 4a22 213f
00000170: 42c1 63be cd32 113f 250c 263d 172c 0b3f
00000180: f7ba e53e 3b8c 193e 9b84 8bbc 6793 e8be
00000190: 3e14 d53e 209c 19be d5e4 b93e 7ba6 283f
000001a0: 652c 933e 149b 263f 95c8 d33e 4f17 0f3f
000001b0: 582e 073f ff52 b7be 562a a0be 625d 65be
000001c0: 350e b33e 5052 ab3d 56b3 a73e 8a4b 873e
000001d0: 466c cc3e a848 e83d f64d 36bd 69a6 88bd
000001e0: cc3e 883e 0fc4 d63e 05b2 ac3e e8c0 373e
000001f0: 4fa4 aa3e e012 efbe 23d8 c03e 119c 743e
00000200: 46cf a93e 62d5 c1bd 29db 263e 06da b53e
00000210: b40a 90bc 288d 52be 693b 8a3e 5579 27be
00000220: 08b0 f53e cb8c 653d 67d1 5bbe 1b02 fcbd
00000230: a024 093f 7999 2ebe 808e f93d 35b8 093d
00000240: 62fb 3ebe 43df 98bd 3f9b 3cbe eb52 25be
00000250: 5186 2e3f e472 4bbe 9793 1abf 58cc 13bf
00000260: 0464 05bf 6d2f 8abd 998f 2dbe 0938 153f
00000270: 4ae7 513e 54c7 15be 3686 7abe ad93 6ebe
00000280: 1e12 2abe d81e 773d 5777 a0bb ee0a 123d
00000290: 8e35 45bd 0e4c 583e fff9 fc3e 8a0a 14be
000002a0: b89d 5e3b c8c3 253f 7742 41be 304a a2bd
000002b0: 5700 58be e451 24be d633 b03e af41 11be
000002c0: fcb5 943e 2a40 013f 5fcc 7e3e cba1 2e3e
000002d0: ea67 20be b5ee 0e3e 7486 3d3f 4f2a 8f3e
000002e0: 4d86 61be edf4 e33e ade2 a03e 57e3 cd3e
000002f0: 44a0 6c3e 83d2 5f3e 5458 943e 6073 083f
00000300: 961a 61be b47f 803e 0ff4 5fbe b302 60be
00000310: be7a 60be 3871 133f 1140 103f 600b 7dbd
00000320: c4e2 64be 529c 813e 6d9c dc3e 4719 363f
00000330: d78c f43e efe2 d23e 5f6b 9d3e c682 043f
00000340: 8597 ea3e 8f71 dcbe ace2 4fbe 53dc db3e
00000350: 2d01 b83e 0ab9 a7be 6dd6 5a3e df70 c23e
00000360: 3457 793e 60cc a53e 2fac 543e 782a 973e
00000370: 5917 f33d 90e0 953d 341e 9c3e 0dc1 bcbe
00000380: e821 b53e c820 07be d4db 113f 7aa8 23be
00000390: 8d9b c3bd 5ef4 1e3e a982 2b3e f210 853e
000003a0: 9e86 813d 7ae5 2b3e 1cca 4ebe 330b 18bc
000003b0: 18d1 70be 73f6 79be 808c 293f 4098 2b3f
000003c0: efd5 1b3f f3db 8d3e 68c0 b03e 5aeb 143f
000003d0: 4f50 2c3d 28a4 7e3d 7a4b fc3c 848b 0e3f
000003e0: b343 8e3e b837 9b3e 9cb1 103e fb22 8b3e
000003f0: b28a 6b3e 27f7 30bf aae1 9d3e d1c9 c23c
0.3092886 0.11324137 0.083651036 -0.30829084 0.38554725 -0.06324536 0.35684556 -0.006392613
-0.27113092 0.28428194 0.15519916 0.37723687 0.15051405 0.23711212 0.02535595 0.41444683
-0.27129242 -0.17752254 -0.26999146 -0.26974297 -0.26971352 0.36646417 0.49286968 0.59899807
-0.3065042 0.11745275 -0.078689754 0.502431 0.08218827 0.07484581 0.08680828 0.12123499
-0.055133965 -0.42070597 -0.18394075 0.08229103 0.07029165 0.598666 -0.15054138 0.15852492
0.28912935 0.31465477 0.22021039 0.10461085 0.061559238 0.20306419 -0.09264476 0.48621243
-0.23940125 0.45156235 0.3106586 0.4100464 0.6121113 0.12095252 -0.2308388 -0.24759614
0.3819144 -0.05743938 0.45844644 0.33106452 0.50255144 0.5017401 -0.42914438 -0.4309563
-0.43146163 -0.24894342 -0.12345343 -0.19196615 0.45532408 0.24392506 0.37004042 0.13056406
0.35892904 -0.124311544 -0.21944165 -0.045657344 0.34327573 0.39405596 0.4198305 0.3328873
0.35819185 -0.56256825 0.33606803 0.23882759 0.433031 0.017707428 0.14379093 0.23757559
-0.058581088 0.29998326 -0.10895454 0.62942946 -0.22241691 0.5671814 0.040538926 0.5436415
0.44869205 0.149949 -0.017031005 -0.4542496 0.41617006 -0.15000963 0.36307397 0.6587903
0.28744808 0.6508038 0.4136397 0.5589494 0.5280509 -0.35805508 -0.312823 -0.22398904
0.34971777 0.08365309 0.3275401 0.2642482 0.39926356 0.11341983 -0.044507943 -0.06672365
0.2661041 0.41946456 0.33729568 0.17944682 0.33328483 -0.46694088 0.376649 0.2388766
0.3316595 -0.09464528 0.1629454 0.355179 -0.017583229 -0.2056166 0.2699845 -0.16354878
0.47985864 0.056042474 -0.214666 -0.12305089 0.5357151 -0.17050733 0.12185383 0.03362294
-0.18650582 -0.07464459 -0.18418597 -0.16144912 0.681737 -0.19868046 -0.60381454 -0.5773368
-0.52105737 -0.06747327 -0.1694931 0.5828863 0.20498386 -0.14626819 -0.2446526 -0.23298521
-0.16608474 0.06033215 -0.004897039 0.035654955 -0.048146777 0.21122763 0.49409482 -0.14457145
0.003396852 0.64751863 -0.1887301 -0.079243064 -0.2109388 -0.16046864 0.34414548 -0.14185213
0.29045093 0.5048853 0.24882649 0.17053907 -0.1566464 0.13958247 0.74033284 0.27961966
-0.22023888 0.445228 0.3142294 0.4021251 0.23108011 0.21857648 0.2897364 0.5330105
-0.21982798 0.2509743 -0.21870445 -0.2187603 -0.21921822 0.57594633 0.5634776 -0.061778426
-0.22352129 0.25314575 0.43088093 0.7113232 0.47763702 0.41188762 0.3074598 0.51762044
0.45818725 -0.43055388 -0.20301312 0.42941532 0.35938397 -0.3275836 0.2137086 0.3797674
0.24349672 0.32382488 0.20768808 0.2952459 0.118696876 0.073182225 0.30491793 -0.36866036
0.3537743 -0.13196099 0.56976056 -0.15982237 -0.09551153 0.15522906 0.16749062 0.2598949
0.06324504 0.16786757 -0.20194286 -0.009280014 -0.23517263 -0.24410419 0.6623001 0.6702919
0.6087331 0.2770687 0.34521794 0.5817162 0.042068776 0.06216827 0.030797709 0.55681634
0.27786025 0.30315948 0.14130253 0.27175125 0.23002127 -0.69127125 0.3083623 0.023777874

l1.bias f4 [8]
00000000: 700b 8a3e 03d4 dc3e f13c ee3e cf7d 1a3f
00000010: 78e3 5f3e 4894 8f3f 4832 d73e 15de 833e
0.2696185 0.43130502 0.4653087 0.6034822 0.21864116 1.1217127 0.4203055 0.25755373

l2.weight f4 [8, 8]
00000000: d261 9f3f 3c7e 5dbf 4381 1fbf 2373 23be
00000010: 54aa bf3d a5c4 a53f 9738 3fbe 585c 043e
00000020: 708f 553f 9aa6 e0be 32e1 1abf 8e60 883f
00000030: d066 973e 303b 803f 621f 663f 8b56 1d3d
00000040: 8305 ebbb cb62 523f f336 dabd 96e0 ba3f
00000050: cd50 49bf 2314 763f 3161 aa3f f904 29bf
00000060: 83ed 033f 304e c93e 5420 8a3e 1db6 84bf
00000070: 4724 323f 6557 0f3f 42d2 afbe f65e 803f
00000080: f543 6abf 1b1a 803f c7f3 8d3f 3778 00be
00000090: 7fbd 313e fe00 133d f550 c53e 150d d43e
000000a0: f1a4 553f 8ba4 873e 005c aebd 8563 7dbf
000000b0: 0c6d 1d3f 2b17 723f 7c78 84bf b0cc 5b3f
000000c0: 4d70 65bf 11c3 5f3f 8bf1 903f f82b cabe
000000d0: e9e6 b53e 8fee 8e3e 7c01 253e 46cc 963e
000000e0: f925 6dbf 8ae2 18bf 0367 0a3f dd9f 16bf
000000f0: 146c 38bf 1ff3 7e3f 01c3 74bf 05a6 403e
1.2451727 -0.86520743 -0.6230661 -0.1596189 0.093586594 1.2950636 -0.18673931 0.12925851
0.83421993 -0.43877107 -0.6049987 1.0654466 0.29570627 1.0018063 0.89891636 0.038412612
-0.007172288 0.82181996 -0.10655012 1.4599788 -0.7863892 0.96124476 1.331091 -0.6602321
0.5153429 0.39317465 0.2697779 -1.0368077 0.69586605 0.5599273 -0.343401 1.002898
-0.91509944 1.0007967 1.109002 -0.12545858 0.17357443 0.035889618 0.38538328 0.4141623
0.83454806 0.26492724 -0.08513641 -0.9897998 0.6149452 0.945666 -1.0349269 0.85859203
-0.8962448 0.8740702 1.1323713 -0.3948667 0.35527733 0.2791638 0.16113847 0.29452723
-0.92636067 -0.5972067 0.54063433 -0.5883768 -0.72039914 0.99589723 -0.9561005 0.18813331

l2.bias f4 [8]
00000000: 47c8 043f 3634 1c3f bfba 563f 0a6b 9a3e
00000010: ed8c df3e dcd8 a6be c795 073f 1094 433f
0.518681 0.6101717 0.838787 0.3015979 0.43662205 -0.32587326 0.5296292 0.763978

l3.weight f4 [6, 8]
00000000: 29a6 c43e 8853 c03e 70a4 3abf 9d83 6e3e
00000010: 4786 67bf 053e ec3e 6eae c3be b1ff 78bf
00000020: 412e 10bf ed23 8dbf 0d45 a7bd 3516 28bd
00000030: a45b 023f b7ae f0be 5501 d13e 9cf3 58bf
00000040: 46ad 79bf 2fb8 233e 57d5 4d3f c223 69bf
00000050: a1c5 a0bb 9422 3ebf 3449 983c c2b5 07bf
00000060: 1d7b de3e 144d 00be 5fd4 d93b e23a 67bd
00000070: 0b82 d4be 64b8 e4bd 03c9 143e 13ac 803f
00000080: 37d1 d2be 6416 29bf a71d 3cbf 66be 963e
00000090: 1ad8 003e b793 1c3f 6d25 1b3e 2d4d 4cbf
000000a0: 769c 263f f9fa b83e 228a 223f d99b 18bf
000000b0: 1837 b2bf 8bf1 47bf 8047 8bbf c202 38be
0.3840802 0.3756373 -0.7290716 0.23292394 -0.90439266 0.46141067 -0.38219017 -0.97265154
-0.5632058 -1.1026589 -0.08167467 -0.041036803 0.5092108 -0.47008297 0.4082133 -0.8474672
-0.9753002 0.15988229 0.80403656 -0.9107019 -0.0049063717 -0.7427151 0.018589593 -0.53011715
0.43453303 -0.12529403 0.006647631 -0.05645264 -0.41505465 -0.11167982 0.14529805 1.0052513
-0.41175243 -0.6604979 -0.73482746 0.29442137 0.12582436 0.61162895 0.15150996 -0.7980526
0.6508249 0.36128977 0.63492024 -0.59612805 -1.3923063 -0.7810294 -1.0881195 -0.17969802

l3.bias f4 [6]
00000000: 45e5 433d c725 463e 4f66 2e3e b76e 23bc
00000010: 8102 b6be 7250 613e
0.04782607 0.19350348 0.17031215 -0.009975127 -0.35548785 0.22003344
